…
output: torch.Size([768, 768])
up: torch.Size([3072, 768])
down: torch.Size([768, 3072])
Layer: 10
query: torch.Size([768, 768])
key: torch.Size([768, 768])
value: torch.Size([768, 768])
output: torch.Size([768, 768])
up: torch.Size([3072, 768])
down: torch.Size([768, 3072])
Layer: 11
query: torch.Size([768, 768])
key: torch.Size([768, 768])
value: torch.Size([768, 768])
output: torch.Size([768, 768])
up: torch.Size([3072, 768])
down: torch.Size([768, 3072])
07/24/2024 13:03:39 - INFO - __main__ - CoFiBertForSequenceClassification(
  (bert): CoFiBertModel(
    (embeddings): CoFiBertEmbeddings(
      (word_embeddings): Embedding(28996, 768, padding_idx=0)
      (position_embeddings): Embedding(512, 768)
      (token_type_embeddings): Embedding(2, 768)
      (LayerNorm): CoFiLayerNorm((768,), eps=1e-12, elementwise_affine=True)
      (dropout): Dropout(p=0.1, inplace=False)
    )
    (encoder): CoFiBertEncoder(
      (layer): ModuleList(
        (0): CoFiBertLayer(
          (attention): CoFiBertAttention(
            (self): CoFiBertSelfAttention(
              (query): Linear(in_features=768, out_features=768, bias=True)
              (key): Linear(in_features=768, out_features=768, bias=True)
              (value): Linear(in_features=768, out_features=768, bias=True)
              (dropout): Dropout(p=0.1, inplace=False)
            )
            (output): CoFiBertSelfOutput(
              (dense): Linear(in_features=768, out_features=768, bias=True)
              (LayerNorm): CoFiLayerNorm((768,), eps=1e-12, elementwise_affine=True)
              (dropout): Dropout(p=0.1, inplace=False)
              (adapter): AdapterModule(
                (proj_down): Linear(in_features=768, out_features=64, bias=True)
                (proj_up): Linear(in_features=64, out_features=768, bias=True)
              )
            )
          )
          (intermediate): BertIntermediate(
            (dense): Linear(in_features=768, out_features=3072, bias=True)
            (intermediate_act_fn): GELUActivation()
          )
          (output): CoFiBertOutput(
            (dense): Linear(in_features=3072, out_features=768, bias=True)
            (LayerNorm): CoFiLayerNorm((768,), eps=1e-12, elementwise_affine=True)
            (dropout): Dropout(p=0.1, inplace=False)
            (adapter): AdapterModule(
              (proj_down): Linear(in_features=768, out_features=64, bias=True)
              (proj_up): Linear(in_features=64, out_features=768, bias=True)
            )
          )
        )
        (1): CoFiBertLayer(
          (attention): CoFiBertAttention(
            (self): CoFiBertSelfAttention(
              (query): Linear(in_features=768, out_features=768, bias=True)
              (key): Linear(in_features=768, out_features=768, bias=True)
              (value): Linear(in_features=768, out_features=768, bias=True)
              (dropout): Dropout(p=0.1, inplace=False)
            )
            (output): CoFiBertSelfOutput(
              (dense): Linear(in_features=768, out_features=768, bias=True)
              (LayerNorm): CoFiLayerNorm((768,), eps=1e-12, elementwise_affine=True)
              (dropout): Dropout(p=0.1, inplace=False)
              (adapter): AdapterModule(
                (proj_down): Linear(in_features=768, out_features=64, bias=True)
                (proj_up): Linear(in_features=64, out_features=768, bias=True)
              )
            )
          )
          (intermediate): BertIntermediate(
            (dense): Linear(in_features=768, out_features=3072, bias=True)
            (intermediate_act_fn): GELUActivation()
          )
          (output): CoFiBertOutput(
            (dense): Linear(in_features=3072, out_features=768, bias=True)
            (LayerNorm): CoFiLayerNorm((768,), eps=1e-12, elementwise_affine=True)
            (dropout): Dropout(p=0.1, inplace=False)
            (adapter): AdapterModule(
              (proj_down): Linear(in_features=768, out_features=64, bias=True)
              (proj_up): Linear(in_features=64, out_features=768, bias=True)
            )
          )
        )
        (2): CoFiBertLayer(
          (attention): CoFiBertAttention(
            (self): CoFiBertSelfAttention(
              (query): Linear(in_features=768, out_features=768, bias=True)
              (key): Linear(in_features=768, out_features=768, bias=True)
              (value): Linear(in_features=768, out_features=768, bias=True)
              (dropout): Dropout(p=0.1, inplace=False)
            )
            (output): CoFiBertSelfOutput(
              (dense): Linear(in_features=768, out_features=768, bias=True)
              (LayerNorm): CoFiLayerNorm((768,), eps=1e-12, elementwise_affine=True)
              (dropout): Dropout(p=0.1, inplace=False)
              (adapter): AdapterModule(
                (proj_down): Linear(in_features=768, out_features=64, bias=True)
                (proj_up): Linear(in_features=64, out_features=768, bias=True)
              )
            )
          )
          (intermediate): BertIntermediate(
            (dense): Linear(in_features=768, out_features=3072, bias=True)
            (intermediate_act_fn): GELUActivation()
          )
          (output): CoFiBertOutput(
            (dense): Linear(in_features=3072, out_features=768, bias=True)
            (LayerNorm): CoFiLayerNorm((768,), eps=1e-12, elementwise_affine=True)
            (dropout): Dropout(p=0.1, inplace=False)
            (adapter): AdapterModule(
              (proj_down): Linear(in_features=768, out_features=64, bias=True)
              (proj_up): Linear(in_features=64, out_features=768, bias=True)
            )
          )
        )
        (3): CoFiBertLayer(
          (attention): CoFiBertAttention(
            (self): CoFiBertSelfAttention(
              (query): Linear(in_features=768, out_features=768, bias=True)
              (key): Linear(in_features=768, out_features=768, bias=True)
              (value): Linear(in_features=768, out_features=768, bias=True)
              (dropout): Dropout(p=0.1, inplace=False)
            )
            (output): CoFiBertSelfOutput(
              (dense): Linear(in_features=768, out_features=768, bias=True)
              (LayerNorm): CoFiLayerNorm((768,), eps=1e-12, elementwise_affine=True)
              (dropout): Dropout(p=0.1, inplace=False)
              (adapter): AdapterModule(
                (proj_down): Linear(in_features=768, out_features=64, bias=True)
                (proj_up): Linear(in_features=64, out_features=768, bias=True)
              )
            )
          )
          (intermediate): BertIntermediate(
            (dense): Linear(in_features=768, out_features=3072, bias=True)
            (intermediate_act_fn): GELUActivation()
          )
          (output): CoFiBertOutput(
            (dense): Linear(in_features=3072, out_features=768, bias=True)
            (LayerNorm): CoFiLayerNorm((768,), eps=1e-12, elementwise_affine=True)
            (dropout): Dropout(p=0.1, inplace=False)
            (adapter): AdapterModule(
              (proj_down): Linear(in_features=768, out_features=64, bias=True)
              (proj_up): Linear(in_features=64, out_features=768, bias=True)
            )
          )
        )
        (4): CoFiBertLayer(
          (attention): CoFiBertAttention(
            (self): CoFiBertSelfAttention(
              (query): Linear(in_features=768, out_features=768, bias=True)
              (key): Linear(in_features=768, out_features=768, bias=True)
              (value): Linear(in_features=768, out_features=768, bias=True)
              (dropout): Dropout(p=0.1, inplace=False)
            )
            (output): CoFiBertSelfOutput(
              (dense): Linear(in_features=768, out_features=768, bias=True)
              (LayerNorm): CoFiLayerNorm((768,), eps=1e-12, elementwise_affine=True)
              (dropout): Dropout(p=0.1, inplace=False)
              (adapter): AdapterModule(
                (proj_down): Linear(in_features=768, out_features=64, bias=True)
                (proj_up): Linear(in_features=64, out_features=768, bias=True)
              )
            )
          )
          (intermediate): BertIntermediate(
            (dense): Linear(in_features=768, out_features=3072, bias=True)
            (intermediate_act_fn): GELUActivation()
          )
          (output): CoFiBertOutput(
            (dense): Linear(in_features=3072, out_features=768, bias=True)
            (LayerNorm): CoFiLayerNorm((768,), eps=1e-12, elementwise_affine=True)
            (dropout): Dropout(p=0.1, inplace=False)
            (adapter): AdapterModule(
              (proj_down): Linear(in_features=768, out_features=64, bias=True)
              (proj_up): Linear(in_features=64, out_features=768, bias=True)
            )
          )
        )
        (5): CoFiBertLayer(
          (attention): CoFiBertAttention(
            (self): CoFiBertSelfAttention(
              (query): Linear(in_features=768, out_features=768, bias=True)
              (key): Linear(in_features=768, out_features=768, bias=True)
              (value): Linear(in_features=768, out_features=768, bias=True)
              (dropout): Dropout(p=0.1, inplace=False)
            )
            (output): CoFiBertSelfOutput(
              (dense): Linear(in_features=768, out_features=768, bias=True)
              (LayerNorm): CoFiLayerNorm((768,), eps=1e-12, elementwise_affine=True)
              (dropout): Dropout(p=0.1, inplace=False)
              (adapter): AdapterModule(
                (proj_down): Linear(in_features=768, out_features=64, bias=True)
                (proj_up): Linear(in_features=64, out_features=768, bias=True)
              )
            )
          )
          (intermediate): BertIntermediate(
            (dense): Linear(in_features=768, out_features=3072, bias=True)
            (intermediate_act_fn): GELUActivation()
          )
          (output): CoFiBertOutput(
            (dense): Linear(in_features=3072, out_features=768, bias=True)
            (LayerNorm): CoFiLayerNorm((768,), eps=1e-12, elementwise_affine=True)
            (dropout): Dropout(p=0.1, inplace=False)
            (adapter): AdapterModule(
              (proj_down): Linear(in_features=768, out_features=64, bias=True)
              (proj_up): Linear(in_features=64, out_features=768, bias=True)
            )
          )
        )
        (6): CoFiBertLayer(
          (attention): CoFiBertAttention(
            (self): CoFiBertSelfAttention(
              (query): Linear(in_features=768, out_features=768, bias=True)
              (key): Linear(in_features=768, out_features=768, bias=True)
              (value): Linear(in_features=768, out_features=768, bias=True)
              (dropout): Dropout(p=0.1, inplace=False)
            )
            (output): CoFiBertSelfOutput(
              (dense): Linear(in_features=768, out_features=768, bias=True)
              (LayerNorm): CoFiLayerNorm((768,), eps=1e-12, elementwise_affine=True)
              (dropout): Dropout(p=0.1, inplace=False)
              (adapter): AdapterModule(
                (proj_down): Linear(in_features=768, out_features=64, bias=True)
                (proj_up): Linear(in_features=64, out_features=768, bias=True)
              )
            )
          )
          (intermediate): BertIntermediate(
            (dense): Linear(in_features=768, out_features=3072, bias=True)
            (intermediate_act_fn): GELUActivation()
          )
          (output): CoFiBertOutput(
            (dense): Linear(in_features=3072, out_features=768, bias=True)
            (LayerNorm): CoFiLayerNorm((768,), eps=1e-12, elementwise_affine=True)
            (dropout): Dropout(p=0.1, inplace=False)
            (adapter): AdapterModule(
              (proj_down): Linear(in_features=768, out_features=64, bias=True)
              (proj_up): Linear(in_features=64, out_features=768, bias=True)
            )
          )
        )
        (7): CoFiBertLayer(
          (attention): CoFiBertAttention(
            (self): CoFiBertSelfAttention(
              (query): Linear(in_features=768, out_features=768, bias=True)
              (key): Linear(in_features=768, out_features=768, bias=True)
              (value): Linear(in_features=768, out_features=768, bias=True)
              (dropout): Dropout(p=0.1, inplace=False)
            )
            (output): CoFiBertSelfOutput(
              (dense): Linear(in_features=768, out_features=768, bias=True)
              (LayerNorm): CoFiLayerNorm((768,), eps=1e-12, elementwise_affine=True)
              (dropout): Dropout(p=0.1, inplace=False)
              (adapter): AdapterModule(
                (proj_down): Linear(in_features=768, out_features=64, bias=True)
                (proj_up): Linear(in_features=64, out_features=768, bias=True)
              )
            )
          )
          (intermediate): BertIntermediate(
            (dense): Linear(in_features=768, out_features=3072, bias=True)
            (intermediate_act_fn): GELUActivation()
          )
          (output): CoFiBertOutput(
            (dense): Linear(in_features=3072, out_features=768, bias=True)
            (LayerNorm): CoFiLayerNorm((768,), eps=1e-12, elementwise_affine=True)
            (dropout): Dropout(p=0.1, inplace=False)
            (adapter): AdapterModule(
              (proj_down): Linear(in_features=768, out_features=64, bias=True)
              (proj_up): Linear(in_features=64, out_features=768, bias=True)
            )
          )
        )
        (8): CoFiBertLayer(
          (attention): CoFiBertAttention(
            (self): CoFiBertSelfAttention(
              (query): Linear(in_features=768, out_features=768, bias=True)
              (key): Linear(in_features=768, out_features=768, bias=True)
              (value): Linear(in_features=768, out_features=768, bias=True)
              (dropout): Dropout(p=0.1, inplace=False)
            )
            (output): CoFiBertSelfOutput(
              (dense): Linear(in_features=768, out_features=768, bias=True)
              (LayerNorm): CoFiLayerNorm((768,), eps=1e-12, elementwise_affine=True)
              (dropout): Dropout(p=0.1, inplace=False)
              (adapter): AdapterModule(
                (proj_down): Linear(in_features=768, out_features=64, bias=True)
                (proj_up): Linear(in_features=64, out_features=768, bias=True)
              )
            )
          )
          (intermediate): BertIntermediate(
            (dense): Linear(in_features=768, out_features=3072, bias=True)
            (intermediate_act_fn): GELUActivation()
          )
          (output): CoFiBertOutput(
            (dense): Linear(in_features=3072, out_features=768, bias=True)
            (LayerNorm): CoFiLayerNorm((768,), eps=1e-12, elementwise_affine=True)
            (dropout): Dropout(p=0.1, inplace=False)
            (adapter): AdapterModule(
              (proj_down): Linear(in_features=768, out_features=64, bias=True)
              (proj_up): Linear(in_features=64, out_features=768, bias=True)
            )
          )
        )
        (9): CoFiBertLayer(
          (attention): CoFiBertAttention(
            (self): CoFiBertSelfAttention(
              (query): Linear(in_features=768, out_features=768, bias=True)
              (key): Linear(in_features=768, out_features=768, bias=True)
              (value): Linear(in_features=768, out_features=768, bias=True)
              (dropout): Dropout(p=0.1, inplace=False)
            )
            (output): CoFiBertSelfOutput(
              (dense): Linear(in_features=768, out_features=768, bias=True)
              (LayerNorm): CoFiLayerNorm((768,), eps=1e-12, elementwise_affine=True)
              (dropout): Dropout(p=0.1, inplace=False)
              (adapter): AdapterModule(
                (proj_down): Linear(in_features=768, out_features=64, bias=True)
                (proj_up): Linear(in_features=64, out_features=768, bias=True)
              )
            )
          )
          (intermediate): BertIntermediate(
            (dense): Linear(in_features=768, out_features=3072, bias=True)
            (intermediate_act_fn): GELUActivation()
          )
          (output): CoFiBertOutput(
            (dense): Linear(in_features=3072, out_features=768, bias=True)
            (LayerNorm): CoFiLayerNorm((768,), eps=1e-12, elementwise_affine=True)
            (dropout): Dropout(p=0.1, inplace=False)
            (adapter): AdapterModule(
              (proj_down): Linear(in_features=768, out_features=64, bias=True)
              (proj_up): Linear(in_features=64, out_features=768, bias=True)
            )
          )
        )
        (10): CoFiBertLayer(
          (attention): CoFiBertAttention(
            (self): CoFiBertSelfAttention(
              (query): Linear(in_features=768, out_features=768, bias=True)
              (key): Linear(in_features=768, out_features=768, bias=True)
              (value): Linear(in_features=768, out_features=768, bias=True)
              (dropout): Dropout(p=0.1, inplace=False)
            )
            (output): CoFiBertSelfOutput(
              (dense): Linear(in_features=768, out_features=768, bias=True)
              (LayerNorm): CoFiLayerNorm((768,), eps=1e-12, elementwise_affine=True)
              (dropout): Dropout(p=0.1, inplace=False)
              (adapter): AdapterModule(
                (proj_down): Linear(in_features=768, out_features=64, bias=True)
                (proj_up): Linear(in_features=64, out_features=768, bias=True)
              )
            )
          )
          (intermediate): BertIntermediate(
            (dense): Linear(in_features=768, out_features=3072, bias=True)
            (intermediate_act_fn): GELUActivation()
          )
          (output): CoFiBertOutput(
            (dense): Linear(in_features=3072, out_features=768, bias=True)
            (LayerNorm): CoFiLayerNorm((768,), eps=1e-12, elementwise_affine=True)
            (dropout): Dropout(p=0.1, inplace=False)
            (adapter): AdapterModule(
              (proj_down): Linear(in_features=768, out_features=64, bias=True)
              (proj_up): Linear(in_features=64, out_features=768, bias=True)
            )
          )
        )
        (11): CoFiBertLayer(
          (attention): CoFiBertAttention(
            (self): CoFiBertSelfAttention(
              (query): Linear(in_features=768, out_features=768, bias=True)
              (key): Linear(in_features=768, out_features=768, bias=True)
              (value): Linear(in_features=768, out_features=768, bias=True)
              (dropout): Dropout(p=0.1, inplace=False)
            )
            (output): CoFiBertSelfOutput(
              (dense): Linear(in_features=768, out_features=768, bias=True)
              (LayerNorm): CoFiLayerNorm((768,), eps=1e-12, elementwise_affine=True)
              (dropout): Dropout(p=0.1, inplace=False)
              (adapter): AdapterModule(
                (proj_down): Linear(in_features=768, out_features=64, bias=True)
                (proj_up): Linear(in_features=64, out_features=768, bias=True)
              )
            )
          )
          (intermediate): BertIntermediate(
            (dense): Linear(in_features=768, out_features=3072, bias=True)
            (intermediate_act_fn): GELUActivation()
          )
          (output): CoFiBertOutput(
            (dense): Linear(in_features=3072, out_features=768, bias=True)
            (LayerNorm): CoFiLayerNorm((768,), eps=1e-12, elementwise_affine=True)
            (dropout): Dropout(p=0.1, inplace=False)
            (adapter): AdapterModule(
              (proj_down): Linear(in_features=768, out_features=64, bias=True)
              (proj_up): Linear(in_features=64, out_features=768, bias=True)
            )
          )
        )
      )
    )
    (pooler): BertPooler(
      (dense): Linear(in_features=768, out_features=768, bias=True)
      (activation): Tanh()
    )
  )
  (dropout): Dropout(p=0.1, inplace=False)
  (classifier): Linear(in_features=768, out_features=2, bias=True)
)
07/24/2024 13:03:39 - INFO - __main__ - Model size: 87433728
Loading cached processed dataset at /home/ambla/.cache/huggingface/datasets/glue/mrpc/1.0.0/a420f5e518f42454003587c47467370329f9fc0c6508d1ae0c45b58ea266a353/cache-92915d3f72425b97.arrow
07/24/2024 13:03:39 - INFO - datasets.arrow_dataset - Loading cached processed dataset at /home/ambla/.cache/huggingface/datasets/glue/mrpc/1.0.0/a420f5e518f42454003587c47467370329f9fc0c6508d1ae0c45b58ea266a353/cache-92915d3f72425b97.arrow
…
